…
world_size=1,
embed_dim=1,
local_rank=-1,
dist_url='env://',
nb_classes=2,
data_dir='/root/MSLesSeg24/data',
datalist=None,
preprocess=False,
dim=2,
loss='tripleloss',
distributed=False)
[13:43:51.015830] device  cuda:0
[13:43:51.016447] Random seed set as 42
[13:43:51.016655] Starting for fold 0
[13:43:51.205535] Elements in data_dir_paths: 11052
[13:43:51.240263] Elements in data_dir_paths: 1803
[13:43:51.896473] number of params: 9850561
[13:43:51.896494] model: TimeSformer(
  (model): VisionTransformer(
    (dropout): Dropout(p=0.0, inplace=False)
    (patch_embed): PatchEmbed(
      (proj): Conv2d(2, 192, kernel_size=(2, 2), stride=(2, 2))
    )
    (pos_drop): Dropout(p=0.0, inplace=False)
    (time_drop): Dropout(p=0.0, inplace=False)
    (blocks): ModuleList(
      (0): Block(
        (norm1): LayerNorm((192,), eps=1e-06, elementwise_affine=True)
        (attn): Attention(
          (qkv): Linear(in_features=192, out_features=576, bias=True)
          (proj): Linear(in_features=192, out_features=192, bias=True)
          (proj_drop): Dropout(p=0.0, inplace=False)
          (attn_drop): Dropout(p=0.0, inplace=False)
        )
        (temporal_norm1): LayerNorm((192,), eps=1e-06, elementwise_affine=True)
        (temporal_attn): Attention(
          (qkv): Linear(in_features=192, out_features=576, bias=True)
          (proj): Linear(in_features=192, out_features=192, bias=True)
          (proj_drop): Dropout(p=0.0, inplace=False)
          (attn_drop): Dropout(p=0.0, inplace=False)
        )
        (temporal_fc): Linear(in_features=192, out_features=192, bias=True)
        (drop_path): Identity()
        (norm2): LayerNorm((192,), eps=1e-06, elementwise_affine=True)
        (mlp): Mlp(
          (fc1): Linear(in_features=192, out_features=768, bias=True)
          (act): GELU(approximate='none')
          (fc2): Linear(in_features=768, out_features=192, bias=True)
          (drop): Dropout(p=0.0, inplace=False)
        )
      )
      (1-11): 11 x Block(
        (norm1): LayerNorm((192,), eps=1e-06, elementwise_affine=True)
        (attn): Attention(
          (qkv): Linear(in_features=192, out_features=576, bias=True)
          (proj): Linear(in_features=192, out_features=192, bias=True)
          (proj_drop): Dropout(p=0.0, inplace=False)
          (attn_drop): Dropout(p=0.0, inplace=False)
        )
        (temporal_norm1): LayerNorm((192,), eps=1e-06, elementwise_affine=True)
        (temporal_attn): Attention(
          (qkv): Linear(in_features=192, out_features=576, bias=True)
          (proj): Linear(in_features=192, out_features=192, bias=True)
          (proj_drop): Dropout(p=0.0, inplace=False)
          (attn_drop): Dropout(p=0.0, inplace=False)
        )
        (temporal_fc): Linear(in_features=192, out_features=192, bias=True)
        (drop_path): DropPath()
        (norm2): LayerNorm((192,), eps=1e-06, elementwise_affine=True)
        (mlp): Mlp(
          (fc1): Linear(in_features=192, out_features=768, bias=True)
          (act): GELU(approximate='none')
          (fc2): Linear(in_features=768, out_features=192, bias=True)
          (drop): Dropout(p=0.0, inplace=False)
        )
      )
    )
    (norm): LayerNorm((192,), eps=1e-06, elementwise_affine=True)
    (head): Linear(in_features=192, out_features=1, bias=True)
  )
)
[13:43:51.897079] base lr: 1.00e-03
[13:43:51.897083] actual lr: 7.81e-06
[13:43:51.897086] accumulate grad iterations: 1
[13:43:51.897088] effective batch size: 2
[13:43:51.897595] AdamW (
Parameter Group 0
    amsgrad: False
    betas: (0.9, 0.999)
    capturable: False
    differentiable: False
    eps: 1e-08
    foreach: None
    fused: None
    lr: 7.8125e-06
…
