…
min_lr=0,
dist_on_itp=False,
warmup_epochs=20,
device='cuda:0',
seed=42,
layer_decay=0.75,
clip_grad=None,
num_workers=8,
pin_mem=True,
resume='',
world_size=1,
embed_dim=1,
local_rank=-1,
dist_url='env://',
nb_classes=2,
data_dir='/root/MSLesSeg24/data',
datalist=None,
modalities='T1,T2,FLAIR,T1ce',
preprocess=False,
distributed=False)
[10:18:53.390828] device  cuda:0
[10:18:54.193924] number of params: 28910337
[10:18:54.194180] model: Vivim(
  (encoder): mamba_block(
    (downsample_layers): MixVisionTransformer(
      (embeds): ModuleList(
        (0): PatchEmbedding(
          (patch_embeddings): Conv3d(2, 64, kernel_size=(7, 7, 7), stride=(4, 4, 4), padding=(3, 3, 3))
          (norm): LayerNorm((64,), eps=1e-05, elementwise_affine=True)
        )
        (1): PatchEmbedding(
          (patch_embeddings): Conv3d(64, 128, kernel_size=(3, 3, 3), stride=(2, 2, 2), padding=(1, 1, 1))
          (norm): LayerNorm((128,), eps=1e-05, elementwise_affine=True)
        )
        (2): PatchEmbedding(
          (patch_embeddings): Conv3d(128, 320, kernel_size=(3, 3, 3), stride=(2, 2, 2), padding=(1, 1, 1))
          (norm): LayerNorm((320,), eps=1e-05, elementwise_affine=True)
        )
        (3): PatchEmbedding(
          (patch_embeddings): Conv3d(320, 512, kernel_size=(3, 3, 3), stride=(2, 2, 2), padding=(1, 1, 1))
          (norm): LayerNorm((512,), eps=1e-05, elementwise_affine=True)
        )
      )
      (blocks): ModuleList(
        (0): ModuleList(
          (0-1): 2 x TransformerBlock(
            (norm1): LayerNorm((64,), eps=1e-05, elementwise_affine=True)
            (attention): SelfAttention(
              (query): Linear(in_features=64, out_features=64, bias=True)
              (key_value): Linear(in_features=64, out_features=128, bias=True)
              (attn_dropout): Dropout(p=0.0, inplace=False)
              (proj): Linear(in_features=64, out_features=64, bias=True)
              (proj_dropout): Dropout(p=0.0, inplace=False)
              (sr): Conv3d(64, 64, kernel_size=(4, 4, 4), stride=(4, 4, 4))
              (sr_norm): LayerNorm((64,), eps=1e-05, elementwise_affine=True)
            )
            (norm2): LayerNorm((64,), eps=1e-05, elementwise_affine=True)
            (mlp): _MLP(
              (fc1): Linear(in_features=64, out_features=256, bias=True)
              (dwconv): DWConv(
                (dwconv): Conv3d(256, 256, kernel_size=(3, 3, 3), stride=(1, 1, 1), padding=(1, 1, 1), groups=256)
                (bn): BatchNorm3d(256, eps=1e-05, momentum=0.1, affine=True, track_running_stats=True)
              )
              (fc2): Linear(in_features=256, out_features=64, bias=True)
              (act_fn): GELU(approximate='none')
              (dropout): Dropout(p=0.0, inplace=False)
            )
          )
        )
        (1): ModuleList(
          (0-1): 2 x TransformerBlock(
            (norm1): LayerNorm((128,), eps=1e-05, elementwise_affine=True)
            (attention): SelfAttention(
              (query): Linear(in_features=128, out_features=128, bias=True)
              (key_value): Linear(in_features=128, out_features=256, bias=True)
              (attn_dropout): Dropout(p=0.0, inplace=False)
              (proj): Linear(in_features=128, out_features=128, bias=True)
              (proj_dropout): Dropout(p=0.0, inplace=False)
              (sr): Conv3d(128, 128, kernel_size=(2, 2, 2), stride=(2, 2, 2))
              (sr_norm): LayerNorm((128,), eps=1e-05, elementwise_affine=True)
            )
            (norm2): LayerNorm((128,), eps=1e-05, elementwise_affine=True)
            (mlp): _MLP(
              (fc1): Linear(in_features=128, out_features=512, bias=True)
              (dwconv): DWConv(
                (dwconv): Conv3d(512, 512, kernel_size=(3, 3, 3), stride=(1, 1, 1), padding=(1, 1, 1), groups=512)
                (bn): BatchNorm3d(512, eps=1e-05, momentum=0.1, affine=True, track_running_stats=True)
              )
              (fc2): Linear(in_features=512, out_features=128, bias=True)
              (act_fn): GELU(approximate='none')
              (dropout): Dropout(p=0.0, inplace=False)
            )
          )
        )
        (2): ModuleList(
          (0-1): 2 x TransformerBlock(
            (norm1): LayerNorm((320,), eps=1e-05, elementwise_affine=True)
            (attention): SelfAttention(
              (query): Linear(in_features=320, out_features=320, bias=True)
              (key_value): Linear(in_features=320, out_features=640, bias=True)
              (attn_dropout): Dropout(p=0.0, inplace=False)
              (proj): Linear(in_features=320, out_features=320, bias=True)
              (proj_dropout): Dropout(p=0.0, inplace=False)
            )
            (norm2): LayerNorm((320,), eps=1e-05, elementwise_affine=True)
            (mlp): _MLP(
              (fc1): Linear(in_features=320, out_features=1280, bias=True)
              (dwconv): DWConv(
                (dwconv): Conv3d(1280, 1280, kernel_size=(3, 3, 3), stride=(1, 1, 1), padding=(1, 1, 1), groups=1280)
                (bn): BatchNorm3d(1280, eps=1e-05, momentum=0.1, affine=True, track_running_stats=True)
              )
              (fc2): Linear(in_features=1280, out_features=320, bias=True)
              (act_fn): GELU(approximate='none')
              (dropout): Dropout(p=0.0, inplace=False)
            )
          )
        )
        (3): ModuleList(
          (0-1): 2 x TransformerBlock(
            (norm1): LayerNorm((512,), eps=1e-05, elementwise_affine=True)
            (attention): SelfAttention(
              (query): Linear(in_features=512, out_features=512, bias=True)
              (key_value): Linear(in_features=512, out_features=1024, bias=True)
              (attn_dropout): Dropout(p=0.0, inplace=False)
              (proj): Linear(in_features=512, out_features=512, bias=True)
              (proj_dropout): Dropout(p=0.0, inplace=False)
            )
            (norm2): LayerNorm((512,), eps=1e-05, elementwise_affine=True)
            (mlp): _MLP(
              (fc1): Linear(in_features=512, out_features=2048, bias=True)
              (dwconv): DWConv(
                (dwconv): Conv3d(2048, 2048, kernel_size=(3, 3, 3), stride=(1, 1, 1), padding=(1, 1, 1), groups=2048)
                (bn): BatchNorm3d(2048, eps=1e-05, momentum=0.1, affine=True, track_running_stats=True)
              )
              (fc2): Linear(in_features=2048, out_features=512, bias=True)
              (act_fn): GELU(approximate='none')
              (dropout): Dropout(p=0.0, inplace=False)
            )
          )
        )
      )
      (norms): ModuleList(
        (0): LayerNorm((64,), eps=1e-05, elementwise_affine=True)
        (1): LayerNorm((128,), eps=1e-05, elementwise_affine=True)
        (2): LayerNorm((320,), eps=1e-05, elementwise_affine=True)
        (3): LayerNorm((512,), eps=1e-05, elementwise_affine=True)
      )
    )
    (stages): ModuleList(
      (0): Sequential(
        (0): Sequential(
          (0): MambaLayer(
            (norm1): LayerNorm((64,), eps=1e-05, elementwise_affine=True)
            (mamba): Mamba(
              (in_proj): Linear(in_features=64, out_features=256, bias=False)
              (conv1d): Conv1d(128, 128, kernel_size=(4,), stride=(1,), padding=(3,), groups=128)
              (act): SiLU()
              (x_proj): Linear(in_features=128, out_features=36, bias=False)
              (dt_proj): Linear(in_features=4, out_features=128, bias=True)
              (conv1d_b): Conv1d(128, 128, kernel_size=(4,), stride=(1,), padding=(3,), groups=128)
              (x_proj_b): Linear(in_features=128, out_features=36, bias=False)
              (dt_proj_b): Linear(in_features=4, out_features=128, bias=True)
              (conv1d_s): Conv1d(128, 128, kernel_size=(4,), stride=(1,), padding=(3,), groups=128)
              (x_proj_s): Linear(in_features=128, out_features=36, bias=False)
              (dt_proj_s): Linear(in_features=4, out_features=128, bias=True)
              (out_proj): Linear(in_features=128, out_features=64, bias=False)
            )
            (drop_path): Identity()
            (norm2): LayerNorm((64,), eps=1e-05, elementwise_affine=True)
            (mlp): Mlp(
              (fc1): Linear(in_features=64, out_features=256, bias=True)
              (dwconv): DWConv(
                (dwconv): Conv4D(
                  (conv3d): Conv3d(256, 256, kernel_size=(3, 3, 3), stride=(1, 1, 1), padding=(1, 1, 1), groups=256)
                )
              )
              (act): GELU(approximate='none')
              (fc2): Linear(in_features=256, out_features=64, bias=True)
              (drop): Dropout(p=0.0, inplace=False)
            )
          )
        )
        (1): Sequential(
          (0): MambaLayer(
            (norm1): LayerNorm((64,), eps=1e-05, elementwise_affine=True)
            (mamba): Mamba(
              (in_proj): Linear(in_features=64, out_features=256, bias=False)
              (conv1d): Conv1d(128, 128, kernel_size=(4,), stride=(1,), padding=(3,), groups=128)
              (act): SiLU()
              (x_proj): Linear(in_features=128, out_features=36, bias=False)
              (dt_proj): Linear(in_features=4, out_features=128, bias=True)
              (conv1d_b): Conv1d(128, 128, kernel_size=(4,), stride=(1,), padding=(3,), groups=128)
              (x_proj_b): Linear(in_features=128, out_features=36, bias=False)
              (dt_proj_b): Linear(in_features=4, out_features=128, bias=True)
              (conv1d_s): Conv1d(128, 128, kernel_size=(4,), stride=(1,), padding=(3,), groups=128)
              (x_proj_s): Linear(in_features=128, out_features=36, bias=False)
              (dt_proj_s): Linear(in_features=4, out_features=128, bias=True)
              (out_proj): Linear(in_features=128, out_features=64, bias=False)
            )
            (drop_path): Identity()
            (norm2): LayerNorm((64,), eps=1e-05, elementwise_affine=True)
            (mlp): Mlp(
              (fc1): Linear(in_features=64, out_features=256, bias=True)
              (dwconv): DWConv(
                (dwconv): Conv4D(
                  (conv3d): Conv3d(256, 256, kernel_size=(3, 3, 3), stride=(1, 1, 1), padding=(1, 1, 1), groups=256)
                )
              )
              (act): GELU(approximate='none')
              (fc2): Linear(in_features=256, out_features=64, bias=True)
              (drop): Dropout(p=0.0, inplace=False)
            )
          )
        )
      )
      (1): Sequential(
        (0): Sequential(
          (0): MambaLayer(
            (norm1): LayerNorm((128,), eps=1e-05, elementwise_affine=True)
            (mamba): Mamba(
              (in_proj): Linear(in_features=128, out_features=512, bias=False)
              (conv1d): Conv1d(256, 256, kernel_size=(4,), stride=(1,), padding=(3,), groups=256)
              (act): SiLU()
              (x_proj): Linear(in_features=256, out_features=40, bias=False)
              (dt_proj): Linear(in_features=8, out_features=256, bias=True)
              (conv1d_b): Conv1d(256, 256, kernel_size=(4,), stride=(1,), padding=(3,), groups=256)
              (x_proj_b): Linear(in_features=256, out_features=40, bias=False)
              (dt_proj_b): Linear(in_features=8, out_features=256, bias=True)
              (conv1d_s): Conv1d(256, 256, kernel_size=(4,), stride=(1,), padding=(3,), groups=256)
              (x_proj_s): Linear(in_features=256, out_features=40, bias=False)
              (dt_proj_s): Linear(in_features=8, out_features=256, bias=True)
              (out_proj): Linear(in_features=256, out_features=128, bias=False)
            )
            (drop_path): Identity()
            (norm2): LayerNorm((128,), eps=1e-05, elementwise_affine=True)
            (mlp): Mlp(
              (fc1): Linear(in_features=128, out_features=512, bias=True)
              (dwconv): DWConv(
                (dwconv): Conv4D(
                  (conv3d): Conv3d(512, 512, kernel_size=(3, 3, 3), stride=(1, 1, 1), padding=(1, 1, 1), groups=512)
                )
              )
              (act): GELU(approximate='none')
              (fc2): Linear(in_features=512, out_features=128, bias=True)
              (drop): Dropout(p=0.0, inplace=False)
            )
          )
        )
        (1): Sequential(
          (0): MambaLayer(
            (norm1): LayerNorm((128,), eps=1e-05, elementwise_affine=True)
            (mamba): Mamba(
              (in_proj): Linear(in_features=128, out_features=512, bias=False)
              (conv1d): Conv1d(256, 256, kernel_size=(4,), stride=(1,), padding=(3,), groups=256)
              (act): SiLU()
              (x_proj): Linear(in_features=256, out_features=40, bias=False)
              (dt_proj): Linear(in_features=8, out_features=256, bias=True)
              (conv1d_b): Conv1d(256, 256, kernel_size=(4,), stride=(1,), padding=(3,), groups=256)
              (x_proj_b): Linear(in_features=256, out_features=40, bias=False)
              (dt_proj_b): Linear(in_features=8, out_features=256, bias=True)
              (conv1d_s): Conv1d(256, 256, kernel_size=(4,), stride=(1,), padding=(3,), groups=256)
              (x_proj_s): Linear(in_features=256, out_features=40, bias=False)
              (dt_proj_s): Linear(in_features=8, out_features=256, bias=True)
              (out_proj): Linear(in_features=256, out_features=128, bias=False)
            )
            (drop_path): Identity()
            (norm2): LayerNorm((128,), eps=1e-05, elementwise_affine=True)
            (mlp): Mlp(
              (fc1): Linear(in_features=128, out_features=512, bias=True)
              (dwconv): DWConv(
                (dwconv): Conv4D(
                  (conv3d): Conv3d(512, 512, kernel_size=(3, 3, 3), stride=(1, 1, 1), padding=(1, 1, 1), groups=512)
                )
              )
              (act): GELU(approximate='none')
              (fc2): Linear(in_features=512, out_features=128, bias=True)
              (drop): Dropout(p=0.0, inplace=False)
            )
          )
        )
      )
      (2): Sequential(
        (0): Sequential(
          (0): MambaLayer(
            (norm1): LayerNorm((320,), eps=1e-05, elementwise_affine=True)
            (mamba): Mamba(
              (in_proj): Linear(in_features=320, out_features=1280, bias=False)
              (conv1d): Conv1d(640, 640, kernel_size=(4,), stride=(1,), padding=(3,), groups=640)
              (act): SiLU()
              (x_proj): Linear(in_features=640, out_features=52, bias=False)
              (dt_proj): Linear(in_features=20, out_features=640, bias=True)
              (conv1d_b): Conv1d(640, 640, kernel_size=(4,), stride=(1,), padding=(3,), groups=640)
              (x_proj_b): Linear(in_features=640, out_features=52, bias=False)
              (dt_proj_b): Linear(in_features=20, out_features=640, bias=True)
              (conv1d_s): Conv1d(640, 640, kernel_size=(4,), stride=(1,), padding=(3,), groups=640)
              (x_proj_s): Linear(in_features=640, out_features=52, bias=False)
              (dt_proj_s): Linear(in_features=20, out_features=640, bias=True)
              (out_proj): Linear(in_features=640, out_features=320, bias=False)
            )
            (drop_path): Identity()
            (norm2): LayerNorm((320,), eps=1e-05, elementwise_affine=True)
            (mlp): Mlp(
              (fc1): Linear(in_features=320, out_features=1280, bias=True)
              (dwconv): DWConv(
                (dwconv): Conv4D(
                  (conv3d): Conv3d(1280, 1280, kernel_size=(3, 3, 3), stride=(1, 1, 1), padding=(1, 1, 1), groups=1280)
                )
              )
              (act): GELU(approximate='none')
              (fc2): Linear(in_features=1280, out_features=320, bias=True)
              (drop): Dropout(p=0.0, inplace=False)
            )
          )
        )
        (1): Sequential(
          (0): MambaLayer(
            (norm1): LayerNorm((320,), eps=1e-05, elementwise_affine=True)
            (mamba): Mamba(
              (in_proj): Linear(in_features=320, out_features=1280, bias=False)
              (conv1d): Conv1d(640, 640, kernel_size=(4,), stride=(1,), padding=(3,), groups=640)
              (act): SiLU()
              (x_proj): Linear(in_features=640, out_features=52, bias=False)
              (dt_proj): Linear(in_features=20, out_features=640, bias=True)
              (conv1d_b): Conv1d(640, 640, kernel_size=(4,), stride=(1,), padding=(3,), groups=640)
              (x_proj_b): Linear(in_features=640, out_features=52, bias=False)
              (dt_proj_b): Linear(in_features=20, out_features=640, bias=True)
              (conv1d_s): Conv1d(640, 640, kernel_size=(4,), stride=(1,), padding=(3,), groups=640)
              (x_proj_s): Linear(in_features=640, out_features=52, bias=False)
              (dt_proj_s): Linear(in_features=20, out_features=640, bias=True)
              (out_proj): Linear(in_features=640, out_features=320, bias=False)
            )
            (drop_path): Identity()
            (norm2): LayerNorm((320,), eps=1e-05, elementwise_affine=True)
            (mlp): Mlp(
              (fc1): Linear(in_features=320, out_features=1280, bias=True)
              (dwconv): DWConv(
                (dwconv): Conv4D(
                  (conv3d): Conv3d(1280, 1280, kernel_size=(3, 3, 3), stride=(1, 1, 1), padding=(1, 1, 1), groups=1280)
                )
              )
              (act): GELU(approximate='none')
              (fc2): Linear(in_features=1280, out_features=320, bias=True)
              (drop): Dropout(p=0.0, inplace=False)
            )
          )
        )
      )
      (3): Sequential(
        (0): Sequential(
          (0): MambaLayer(
            (norm1): LayerNorm((512,), eps=1e-05, elementwise_affine=True)
            (mamba): Mamba(
              (in_proj): Linear(in_features=512, out_features=2048, bias=False)
              (conv1d): Conv1d(1024, 1024, kernel_size=(4,), stride=(1,), padding=(3,), groups=1024)
              (act): SiLU()
              (x_proj): Linear(in_features=1024, out_features=64, bias=False)
              (dt_proj): Linear(in_features=32, out_features=1024, bias=True)
              (conv1d_b): Conv1d(1024, 1024, kernel_size=(4,), stride=(1,), padding=(3,), groups=1024)
              (x_proj_b): Linear(in_features=1024, out_features=64, bias=False)
              (dt_proj_b): Linear(in_features=32, out_features=1024, bias=True)
              (conv1d_s): Conv1d(1024, 1024, kernel_size=(4,), stride=(1,), padding=(3,), groups=1024)
              (x_proj_s): Linear(in_features=1024, out_features=64, bias=False)
              (dt_proj_s): Linear(in_features=32, out_features=1024, bias=True)
              (out_proj): Linear(in_features=1024, out_features=512, bias=False)
            )
            (drop_path): Identity()
            (norm2): LayerNorm((512,), eps=1e-05, elementwise_affine=True)
            (mlp): Mlp(
              (fc1): Linear(in_features=512, out_features=2048, bias=True)
              (dwconv): DWConv(
                (dwconv): Conv4D(
                  (conv3d): Conv3d(2048, 2048, kernel_size=(3, 3, 3), stride=(1, 1, 1), padding=(1, 1, 1), groups=2048)
                )
              )
              (act): GELU(approximate='none')
              (fc2): Linear(in_features=2048, out_features=512, bias=True)
              (drop): Dropout(p=0.0, inplace=False)
            )
          )
        )
        (1): Sequential(
          (0): MambaLayer(
            (norm1): LayerNorm((512,), eps=1e-05, elementwise_affine=True)
            (mamba): Mamba(
              (in_proj): Linear(in_features=512, out_features=2048, bias=False)
              (conv1d): Conv1d(1024, 1024, kernel_size=(4,), stride=(1,), padding=(3,), groups=1024)
              (act): SiLU()
              (x_proj): Linear(in_features=1024, out_features=64, bias=False)
              (dt_proj): Linear(in_features=32, out_features=1024, bias=True)
              (conv1d_b): Conv1d(1024, 1024, kernel_size=(4,), stride=(1,), padding=(3,), groups=1024)
              (x_proj_b): Linear(in_features=1024, out_features=64, bias=False)
              (dt_proj_b): Linear(in_features=32, out_features=1024, bias=True)
              (conv1d_s): Conv1d(1024, 1024, kernel_size=(4,), stride=(1,), padding=(3,), groups=1024)
              (x_proj_s): Linear(in_features=1024, out_features=64, bias=False)
              (dt_proj_s): Linear(in_features=32, out_features=1024, bias=True)
              (out_proj): Linear(in_features=1024, out_features=512, bias=False)
            )
            (drop_path): Identity()
            (norm2): LayerNorm((512,), eps=1e-05, elementwise_affine=True)
            (mlp): Mlp(
              (fc1): Linear(in_features=512, out_features=2048, bias=True)
              (dwconv): DWConv(
                (dwconv): Conv4D(
                  (conv3d): Conv3d(2048, 2048, kernel_size=(3, 3, 3), stride=(1, 1, 1), padding=(1, 1, 1), groups=2048)
                )
              )
              (act): GELU(approximate='none')
              (fc2): Linear(in_features=2048, out_features=512, bias=True)
              (drop): Dropout(p=0.0, inplace=False)
            )
          )
        )
      )
    )
  )
  (decoder): SegFormerDecoderHead(
    (linear_c): ModuleList(
      (0): MLP_(
        (proj): Linear(in_features=512, out_features=256, bias=True)
        (bn): LayerNorm((256,), eps=1e-05, elementwise_affine=True)
      )
      (1): MLP_(
        (proj): Linear(in_features=320, out_features=256, bias=True)
        (bn): LayerNorm((256,), eps=1e-05, elementwise_affine=True)
      )
      (2): MLP_(
        (proj): Linear(in_features=128, out_features=256, bias=True)
        (bn): LayerNorm((256,), eps=1e-05, elementwise_affine=True)
      )
      (3): MLP_(
        (proj): Linear(in_features=64, out_features=256, bias=True)
        (bn): LayerNorm((256,), eps=1e-05, elementwise_affine=True)
      )
    )
    (linear_fuse): Sequential(
      (0): Conv3d(1024, 256, kernel_size=(1, 1, 1), stride=(1, 1, 1), bias=False)
      (1): BatchNorm3d(256, eps=1e-05, momentum=0.1, affine=True, track_running_stats=True)
      (2): ReLU()
    )
    (dropout): Dropout(p=0.0, inplace=False)
    (linear_pred): Conv3d(256, 1, kernel_size=(1, 1, 1), stride=(1, 1, 1))
    (upsample_volume): Upsample(scale_factor=4.0, mode='trilinear')
  )
)
[10:18:54.195812] base lr: 1.00e-03
[10:18:54.195870] actual lr: 3.91e-06
[10:18:54.195926] accumulate grad iterations: 1
[10:18:54.195979] effective batch size: 1
[10:18:54.196853] AdamW (
Parameter Group 0
    amsgrad: False
    betas: (0.9, 0.999)
    capturable: False
    differentiable: False
…
