…
[34m[1mwandb[39m[22m: [33mWARNING[39m Found log directory outside of given root_logdir, dropping given root_logdir for event file in /root/seg_framework/MS-Mamba/output_dir/mslesseg/fold_0/val_ft
/root/anaconda3/envs/vivim/lib/python3.10/site-packages/huggingface_hub/file_download.py:1132: FutureWarning: `resume_download` is deprecated and will be removed in version 1.0.0. Downloads always resume when possible. If you want to force a new download, use `force_download=True`.
  warnings.warn(
[07:29:58.190058] number of params: 59620439
[07:29:58.190306] model: Vivim2D(
  (encoder): mamba_block(
    (downsample_layers): SegformerEncoder(
      (patch_embeddings): ModuleList(
        (0): SegformerOverlapPatchEmbeddings(
          (proj): Conv2d(3, 64, kernel_size=(7, 7), stride=(4, 4), padding=(3, 3))
          (layer_norm): LayerNorm((64,), eps=1e-05, elementwise_affine=True)
        )
        (1): SegformerOverlapPatchEmbeddings(
          (proj): Conv2d(64, 128, kernel_size=(3, 3), stride=(2, 2), padding=(1, 1))
          (layer_norm): LayerNorm((128,), eps=1e-05, elementwise_affine=True)
        )
        (2): SegformerOverlapPatchEmbeddings(
          (proj): Conv2d(128, 320, kernel_size=(3, 3), stride=(2, 2), padding=(1, 1))
          (layer_norm): LayerNorm((320,), eps=1e-05, elementwise_affine=True)
        )
        (3): SegformerOverlapPatchEmbeddings(
          (proj): Conv2d(320, 512, kernel_size=(3, 3), stride=(2, 2), padding=(1, 1))
          (layer_norm): LayerNorm((512,), eps=1e-05, elementwise_affine=True)
        )
      )
      (block): ModuleList(
        (0): ModuleList(
          (0): SegformerLayer(
            (layer_norm_1): LayerNorm((64,), eps=1e-05, elementwise_affine=True)
            (attention): SegformerAttention(
              (self): SegformerEfficientSelfAttention(
                (query): Linear(in_features=64, out_features=64, bias=True)
                (key): Linear(in_features=64, out_features=64, bias=True)
                (value): Linear(in_features=64, out_features=64, bias=True)
                (dropout): Dropout(p=0.0, inplace=False)
                (sr): Conv2d(64, 64, kernel_size=(8, 8), stride=(8, 8))
                (layer_norm): LayerNorm((64,), eps=1e-05, elementwise_affine=True)
              )
              (output): SegformerSelfOutput(
                (dense): Linear(in_features=64, out_features=64, bias=True)
                (dropout): Dropout(p=0.0, inplace=False)
              )
            )
            (drop_path): Identity()
            (layer_norm_2): LayerNorm((64,), eps=1e-05, elementwise_affine=True)
            (mlp): SegformerMixFFN(
              (dense1): Linear(in_features=64, out_features=256, bias=True)
              (dwconv): SegformerDWConv(
                (dwconv): Conv2d(256, 256, kernel_size=(3, 3), stride=(1, 1), padding=(1, 1), groups=256)
              )
              (intermediate_act_fn): GELUActivation()
              (dense2): Linear(in_features=256, out_features=64, bias=True)
              (dropout): Dropout(p=0.0, inplace=False)
            )
          )
          (1): SegformerLayer(
            (layer_norm_1): LayerNorm((64,), eps=1e-05, elementwise_affine=True)
            (attention): SegformerAttention(
              (self): SegformerEfficientSelfAttention(
                (query): Linear(in_features=64, out_features=64, bias=True)
                (key): Linear(in_features=64, out_features=64, bias=True)
                (value): Linear(in_features=64, out_features=64, bias=True)
                (dropout): Dropout(p=0.0, inplace=False)
                (sr): Conv2d(64, 64, kernel_size=(8, 8), stride=(8, 8))
                (layer_norm): LayerNorm((64,), eps=1e-05, elementwise_affine=True)
              )
              (output): SegformerSelfOutput(
                (dense): Linear(in_features=64, out_features=64, bias=True)
                (dropout): Dropout(p=0.0, inplace=False)
              )
            )
            (drop_path): SegformerDropPath(p=0.003703703870996833)
            (layer_norm_2): LayerNorm((64,), eps=1e-05, elementwise_affine=True)
            (mlp): SegformerMixFFN(
              (dense1): Linear(in_features=64, out_features=256, bias=True)
              (dwconv): SegformerDWConv(
                (dwconv): Conv2d(256, 256, kernel_size=(3, 3), stride=(1, 1), padding=(1, 1), groups=256)
              )
              (intermediate_act_fn): GELUActivation()
              (dense2): Linear(in_features=256, out_features=64, bias=True)
              (dropout): Dropout(p=0.0, inplace=False)
            )
          )
          (2): SegformerLayer(
            (layer_norm_1): LayerNorm((64,), eps=1e-05, elementwise_affine=True)
            (attention): SegformerAttention(
              (self): SegformerEfficientSelfAttention(
                (query): Linear(in_features=64, out_features=64, bias=True)
                (key): Linear(in_features=64, out_features=64, bias=True)
                (value): Linear(in_features=64, out_features=64, bias=True)
                (dropout): Dropout(p=0.0, inplace=False)
                (sr): Conv2d(64, 64, kernel_size=(8, 8), stride=(8, 8))
                (layer_norm): LayerNorm((64,), eps=1e-05, elementwise_affine=True)
              )
              (output): SegformerSelfOutput(
                (dense): Linear(in_features=64, out_features=64, bias=True)
                (dropout): Dropout(p=0.0, inplace=False)
              )
            )
            (drop_path): SegformerDropPath(p=0.007407407741993666)
            (layer_norm_2): LayerNorm((64,), eps=1e-05, elementwise_affine=True)
            (mlp): SegformerMixFFN(
              (dense1): Linear(in_features=64, out_features=256, bias=True)
              (dwconv): SegformerDWConv(
                (dwconv): Conv2d(256, 256, kernel_size=(3, 3), stride=(1, 1), padding=(1, 1), groups=256)
              )
              (intermediate_act_fn): GELUActivation()
              (dense2): Linear(in_features=256, out_features=64, bias=True)
              (dropout): Dropout(p=0.0, inplace=False)
            )
          )
        )
        (1): ModuleList(
          (0): SegformerLayer(
            (layer_norm_1): LayerNorm((128,), eps=1e-05, elementwise_affine=True)
            (attention): SegformerAttention(
              (self): SegformerEfficientSelfAttention(
                (query): Linear(in_features=128, out_features=128, bias=True)
                (key): Linear(in_features=128, out_features=128, bias=True)
                (value): Linear(in_features=128, out_features=128, bias=True)
                (dropout): Dropout(p=0.0, inplace=False)
                (sr): Conv2d(128, 128, kernel_size=(4, 4), stride=(4, 4))
                (layer_norm): LayerNorm((128,), eps=1e-05, elementwise_affine=True)
              )
              (output): SegformerSelfOutput(
                (dense): Linear(in_features=128, out_features=128, bias=True)
                (dropout): Dropout(p=0.0, inplace=False)
              )
            )
            (drop_path): SegformerDropPath(p=0.011111111380159855)
            (layer_norm_2): LayerNorm((128,), eps=1e-05, elementwise_affine=True)
            (mlp): SegformerMixFFN(
              (dense1): Linear(in_features=128, out_features=512, bias=True)
              (dwconv): SegformerDWConv(
                (dwconv): Conv2d(512, 512, kernel_size=(3, 3), stride=(1, 1), padding=(1, 1), groups=512)
              )
              (intermediate_act_fn): GELUActivation()
              (dense2): Linear(in_features=512, out_features=128, bias=True)
              (dropout): Dropout(p=0.0, inplace=False)
            )
          )
          (1): SegformerLayer(
            (layer_norm_1): LayerNorm((128,), eps=1e-05, elementwise_affine=True)
            (attention): SegformerAttention(
              (self): SegformerEfficientSelfAttention(
                (query): Linear(in_features=128, out_features=128, bias=True)
                (key): Linear(in_features=128, out_features=128, bias=True)
                (value): Linear(in_features=128, out_features=128, bias=True)
                (dropout): Dropout(p=0.0, inplace=False)
                (sr): Conv2d(128, 128, kernel_size=(4, 4), stride=(4, 4))
                (layer_norm): LayerNorm((128,), eps=1e-05, elementwise_affine=True)
              )
              (output): SegformerSelfOutput(
                (dense): Linear(in_features=128, out_features=128, bias=True)
                (dropout): Dropout(p=0.0, inplace=False)
              )
            )
            (drop_path): SegformerDropPath(p=0.014814815483987331)
            (layer_norm_2): LayerNorm((128,), eps=1e-05, elementwise_affine=True)
            (mlp): SegformerMixFFN(
              (dense1): Linear(in_features=128, out_features=512, bias=True)
              (dwconv): SegformerDWConv(
                (dwconv): Conv2d(512, 512, kernel_size=(3, 3), stride=(1, 1), padding=(1, 1), groups=512)
              )
              (intermediate_act_fn): GELUActivation()
              (dense2): Linear(in_features=512, out_features=128, bias=True)
              (dropout): Dropout(p=0.0, inplace=False)
            )
          )
          (2): SegformerLayer(
            (layer_norm_1): LayerNorm((128,), eps=1e-05, elementwise_affine=True)
            (attention): SegformerAttention(
              (self): SegformerEfficientSelfAttention(
                (query): Linear(in_features=128, out_features=128, bias=True)
                (key): Linear(in_features=128, out_features=128, bias=True)
                (value): Linear(in_features=128, out_features=128, bias=True)
                (dropout): Dropout(p=0.0, inplace=False)
                (sr): Conv2d(128, 128, kernel_size=(4, 4), stride=(4, 4))
                (layer_norm): LayerNorm((128,), eps=1e-05, elementwise_affine=True)
              )
              (output): SegformerSelfOutput(
                (dense): Linear(in_features=128, out_features=128, bias=True)
                (dropout): Dropout(p=0.0, inplace=False)
              )
            )
            (drop_path): SegformerDropPath(p=0.018518518656492233)
            (layer_norm_2): LayerNorm((128,), eps=1e-05, elementwise_affine=True)
            (mlp): SegformerMixFFN(
              (dense1): Linear(in_features=128, out_features=512, bias=True)
              (dwconv): SegformerDWConv(
                (dwconv): Conv2d(512, 512, kernel_size=(3, 3), stride=(1, 1), padding=(1, 1), groups=512)
              )
              (intermediate_act_fn): GELUActivation()
              (dense2): Linear(in_features=512, out_features=128, bias=True)
              (dropout): Dropout(p=0.0, inplace=False)
            )
          )
          (3): SegformerLayer(
            (layer_norm_1): LayerNorm((128,), eps=1e-05, elementwise_affine=True)
            (attention): SegformerAttention(
              (self): SegformerEfficientSelfAttention(
                (query): Linear(in_features=128, out_features=128, bias=True)
                (key): Linear(in_features=128, out_features=128, bias=True)
                (value): Linear(in_features=128, out_features=128, bias=True)
                (dropout): Dropout(p=0.0, inplace=False)
                (sr): Conv2d(128, 128, kernel_size=(4, 4), stride=(4, 4))
                (layer_norm): LayerNorm((128,), eps=1e-05, elementwise_affine=True)
              )
              (output): SegformerSelfOutput(
                (dense): Linear(in_features=128, out_features=128, bias=True)
                (dropout): Dropout(p=0.0, inplace=False)
              )
            )
            (drop_path): SegformerDropPath(p=0.02222222276031971)
            (layer_norm_2): LayerNorm((128,), eps=1e-05, elementwise_affine=True)
            (mlp): SegformerMixFFN(
              (dense1): Linear(in_features=128, out_features=512, bias=True)
              (dwconv): SegformerDWConv(
                (dwconv): Conv2d(512, 512, kernel_size=(3, 3), stride=(1, 1), padding=(1, 1), groups=512)
              )
              (intermediate_act_fn): GELUActivation()
              (dense2): Linear(in_features=512, out_features=128, bias=True)
              (dropout): Dropout(p=0.0, inplace=False)
            )
          )
        )
        (2): ModuleList(
          (0): SegformerLayer(
            (layer_norm_1): LayerNorm((320,), eps=1e-05, elementwise_affine=True)
            (attention): SegformerAttention(
              (self): SegformerEfficientSelfAttention(
                (query): Linear(in_features=320, out_features=320, bias=True)
                (key): Linear(in_features=320, out_features=320, bias=True)
                (value): Linear(in_features=320, out_features=320, bias=True)
                (dropout): Dropout(p=0.0, inplace=False)
                (sr): Conv2d(320, 320, kernel_size=(2, 2), stride=(2, 2))
                (layer_norm): LayerNorm((320,), eps=1e-05, elementwise_affine=True)
              )
              (output): SegformerSelfOutput(
                (dense): Linear(in_features=320, out_features=320, bias=True)
                (dropout): Dropout(p=0.0, inplace=False)
              )
            )
            (drop_path): SegformerDropPath(p=0.025925926864147186)
            (layer_norm_2): LayerNorm((320,), eps=1e-05, elementwise_affine=True)
            (mlp): SegformerMixFFN(
              (dense1): Linear(in_features=320, out_features=1280, bias=True)
              (dwconv): SegformerDWConv(
                (dwconv): Conv2d(1280, 1280, kernel_size=(3, 3), stride=(1, 1), padding=(1, 1), groups=1280)
              )
              (intermediate_act_fn): GELUActivation()
              (dense2): Linear(in_features=1280, out_features=320, bias=True)
              (dropout): Dropout(p=0.0, inplace=False)
            )
          )
          (1): SegformerLayer(
            (layer_norm_1): LayerNorm((320,), eps=1e-05, elementwise_affine=True)
            (attention): SegformerAttention(
              (self): SegformerEfficientSelfAttention(
                (query): Linear(in_features=320, out_features=320, bias=True)
                (key): Linear(in_features=320, out_features=320, bias=True)
                (value): Linear(in_features=320, out_features=320, bias=True)
                (dropout): Dropout(p=0.0, inplace=False)
                (sr): Conv2d(320, 320, kernel_size=(2, 2), stride=(2, 2))
                (layer_norm): LayerNorm((320,), eps=1e-05, elementwise_affine=True)
              )
              (output): SegformerSelfOutput(
                (dense): Linear(in_features=320, out_features=320, bias=True)
                (dropout): Dropout(p=0.0, inplace=False)
              )
            )
            (drop_path): SegformerDropPath(p=0.029629630967974663)
            (layer_norm_2): LayerNorm((320,), eps=1e-05, elementwise_affine=True)
            (mlp): SegformerMixFFN(
              (dense1): Linear(in_features=320, out_features=1280, bias=True)
              (dwconv): SegformerDWConv(
                (dwconv): Conv2d(1280, 1280, kernel_size=(3, 3), stride=(1, 1), padding=(1, 1), groups=1280)
              )
              (intermediate_act_fn): GELUActivation()
              (dense2): Linear(in_features=1280, out_features=320, bias=True)
              (dropout): Dropout(p=0.0, inplace=False)
            )
          )
          (2): SegformerLayer(
            (layer_norm_1): LayerNorm((320,), eps=1e-05, elementwise_affine=True)
            (attention): SegformerAttention(
              (self): SegformerEfficientSelfAttention(
                (query): Linear(in_features=320, out_features=320, bias=True)
                (key): Linear(in_features=320, out_features=320, bias=True)
                (value): Linear(in_features=320, out_features=320, bias=True)
                (dropout): Dropout(p=0.0, inplace=False)
                (sr): Conv2d(320, 320, kernel_size=(2, 2), stride=(2, 2))
                (layer_norm): LayerNorm((320,), eps=1e-05, elementwise_affine=True)
              )
              (output): SegformerSelfOutput(
                (dense): Linear(in_features=320, out_features=320, bias=True)
                (dropout): Dropout(p=0.0, inplace=False)
              )
            )
            (drop_path): SegformerDropPath(p=0.03333333507180214)
            (layer_norm_2): LayerNorm((320,), eps=1e-05, elementwise_affine=True)
            (mlp): SegformerMixFFN(
              (dense1): Linear(in_features=320, out_features=1280, bias=True)
              (dwconv): SegformerDWConv(
                (dwconv): Conv2d(1280, 1280, kernel_size=(3, 3), stride=(1, 1), padding=(1, 1), groups=1280)
              )
              (intermediate_act_fn): GELUActivation()
              (dense2): Linear(in_features=1280, out_features=320, bias=True)
              (dropout): Dropout(p=0.0, inplace=False)
            )
          )
          (3): SegformerLayer(
            (layer_norm_1): LayerNorm((320,), eps=1e-05, elementwise_affine=True)
            (attention): SegformerAttention(
              (self): SegformerEfficientSelfAttention(
                (query): Linear(in_features=320, out_features=320, bias=True)
                (key): Linear(in_features=320, out_features=320, bias=True)
                (value): Linear(in_features=320, out_features=320, bias=True)
                (dropout): Dropout(p=0.0, inplace=False)
                (sr): Conv2d(320, 320, kernel_size=(2, 2), stride=(2, 2))
                (layer_norm): LayerNorm((320,), eps=1e-05, elementwise_affine=True)
              )
              (output): SegformerSelfOutput(
                (dense): Linear(in_features=320, out_features=320, bias=True)
                (dropout): Dropout(p=0.0, inplace=False)
              )
            )
            (drop_path): SegformerDropPath(p=0.03703703731298447)
            (layer_norm_2): LayerNorm((320,), eps=1e-05, elementwise_affine=True)
            (mlp): SegformerMixFFN(
              (dense1): Linear(in_features=320, out_features=1280, bias=True)
              (dwconv): SegformerDWConv(
                (dwconv): Conv2d(1280, 1280, kernel_size=(3, 3), stride=(1, 1), padding=(1, 1), groups=1280)
              )
              (intermediate_act_fn): GELUActivation()
              (dense2): Linear(in_features=1280, out_features=320, bias=True)
              (dropout): Dropout(p=0.0, inplace=False)
            )
          )
          (4): SegformerLayer(
            (layer_norm_1): LayerNorm((320,), eps=1e-05, elementwise_affine=True)
            (attention): SegformerAttention(
              (self): SegformerEfficientSelfAttention(
                (query): Linear(in_features=320, out_features=320, bias=True)
                (key): Linear(in_features=320, out_features=320, bias=True)
                (value): Linear(in_features=320, out_features=320, bias=True)
                (dropout): Dropout(p=0.0, inplace=False)
                (sr): Conv2d(320, 320, kernel_size=(2, 2), stride=(2, 2))
                (layer_norm): LayerNorm((320,), eps=1e-05, elementwise_affine=True)
              )
              (output): SegformerSelfOutput(
                (dense): Linear(in_features=320, out_features=320, bias=True)
                (dropout): Dropout(p=0.0, inplace=False)
              )
            )
            (drop_path): SegformerDropPath(p=0.04074074327945709)
            (layer_norm_2): LayerNorm((320,), eps=1e-05, elementwise_affine=True)
            (mlp): SegformerMixFFN(
              (dense1): Linear(in_features=320, out_features=1280, bias=True)
              (dwconv): SegformerDWConv(
                (dwconv): Conv2d(1280, 1280, kernel_size=(3, 3), stride=(1, 1), padding=(1, 1), groups=1280)
              )
              (intermediate_act_fn): GELUActivation()
              (dense2): Linear(in_features=1280, out_features=320, bias=True)
              (dropout): Dropout(p=0.0, inplace=False)
            )
          )
          (5): SegformerLayer(
            (layer_norm_1): LayerNorm((320,), eps=1e-05, elementwise_affine=True)
            (attention): SegformerAttention(
              (self): SegformerEfficientSelfAttention(
                (query): Linear(in_features=320, out_features=320, bias=True)
                (key): Linear(in_features=320, out_features=320, bias=True)
                (value): Linear(in_features=320, out_features=320, bias=True)
                (dropout): Dropout(p=0.0, inplace=False)
                (sr): Conv2d(320, 320, kernel_size=(2, 2), stride=(2, 2))
                (layer_norm): LayerNorm((320,), eps=1e-05, elementwise_affine=True)
              )
              (output): SegformerSelfOutput(
                (dense): Linear(in_features=320, out_features=320, bias=True)
                (dropout): Dropout(p=0.0, inplace=False)
              )
            )
            (drop_path): SegformerDropPath(p=0.04444444552063942)
            (layer_norm_2): LayerNorm((320,), eps=1e-05, elementwise_affine=True)
            (mlp): SegformerMixFFN(
              (dense1): Linear(in_features=320, out_features=1280, bias=True)
              (dwconv): SegformerDWConv(
                (dwconv): Conv2d(1280, 1280, kernel_size=(3, 3), stride=(1, 1), padding=(1, 1), groups=1280)
              )
              (intermediate_act_fn): GELUActivation()
              (dense2): Linear(in_features=1280, out_features=320, bias=True)
              (dropout): Dropout(p=0.0, inplace=False)
            )
          )
          (6): SegformerLayer(
            (layer_norm_1): LayerNorm((320,), eps=1e-05, elementwise_affine=True)
            (attention): SegformerAttention(
              (self): SegformerEfficientSelfAttention(
                (query): Linear(in_features=320, out_features=320, bias=True)
                (key): Linear(in_features=320, out_features=320, bias=True)
                (value): Linear(in_features=320, out_features=320, bias=True)
                (dropout): Dropout(p=0.0, inplace=False)
                (sr): Conv2d(320, 320, kernel_size=(2, 2), stride=(2, 2))
                (layer_norm): LayerNorm((320,), eps=1e-05, elementwise_affine=True)
              )
              (output): SegformerSelfOutput(
                (dense): Linear(in_features=320, out_features=320, bias=True)
                (dropout): Dropout(p=0.0, inplace=False)
              )
            )
            (drop_path): SegformerDropPath(p=0.048148151487112045)
            (layer_norm_2): LayerNorm((320,), eps=1e-05, elementwise_affine=True)
            (mlp): SegformerMixFFN(
              (dense1): Linear(in_features=320, out_features=1280, bias=True)
              (dwconv): SegformerDWConv(
                (dwconv): Conv2d(1280, 1280, kernel_size=(3, 3), stride=(1, 1), padding=(1, 1), groups=1280)
              )
              (intermediate_act_fn): GELUActivation()
              (dense2): Linear(in_features=1280, out_features=320, bias=True)
              (dropout): Dropout(p=0.0, inplace=False)
            )
          )
          (7): SegformerLayer(
            (layer_norm_1): LayerNorm((320,), eps=1e-05, elementwise_affine=True)
            (attention): SegformerAttention(
              (self): SegformerEfficientSelfAttention(
                (query): Linear(in_features=320, out_features=320, bias=True)
                (key): Linear(in_features=320, out_features=320, bias=True)
                (value): Linear(in_features=320, out_features=320, bias=True)
                (dropout): Dropout(p=0.0, inplace=False)
                (sr): Conv2d(320, 320, kernel_size=(2, 2), stride=(2, 2))
                (layer_norm): LayerNorm((320,), eps=1e-05, elementwise_affine=True)
              )
              (output): SegformerSelfOutput(
                (dense): Linear(in_features=320, out_features=320, bias=True)
                (dropout): Dropout(p=0.0, inplace=False)
              )
            )
            (drop_path): SegformerDropPath(p=0.051851850003004074)
            (layer_norm_2): LayerNorm((320,), eps=1e-05, elementwise_affine=True)
            (mlp): SegformerMixFFN(
              (dense1): Linear(in_features=320, out_features=1280, bias=True)
              (dwconv): SegformerDWConv(
                (dwconv): Conv2d(1280, 1280, kernel_size=(3, 3), stride=(1, 1), padding=(1, 1), groups=1280)
              )
              (intermediate_act_fn): GELUActivation()
              (dense2): Linear(in_features=1280, out_features=320, bias=True)
              (dropout): Dropout(p=0.0, inplace=False)
            )
          )
          (8): SegformerLayer(
            (layer_norm_1): LayerNorm((320,), eps=1e-05, elementwise_affine=True)
            (attention): SegformerAttention(
              (self): SegformerEfficientSelfAttention(
                (query): Linear(in_features=320, out_features=320, bias=True)
                (key): Linear(in_features=320, out_features=320, bias=True)
                (value): Linear(in_features=320, out_features=320, bias=True)
                (dropout): Dropout(p=0.0, inplace=False)
                (sr): Conv2d(320, 320, kernel_size=(2, 2), stride=(2, 2))
                (layer_norm): LayerNorm((320,), eps=1e-05, elementwise_affine=True)
              )
              (output): SegformerSelfOutput(
                (dense): Linear(in_features=320, out_features=320, bias=True)
                (dropout): Dropout(p=0.0, inplace=False)
              )
            )
            (drop_path): SegformerDropPath(p=0.0555555559694767)
            (layer_norm_2): LayerNorm((320,), eps=1e-05, elementwise_affine=True)
            (mlp): SegformerMixFFN(
              (dense1): Linear(in_features=320, out_features=1280, bias=True)
              (dwconv): SegformerDWConv(
                (dwconv): Conv2d(1280, 1280, kernel_size=(3, 3), stride=(1, 1), padding=(1, 1), groups=1280)
              )
              (intermediate_act_fn): GELUActivation()
              (dense2): Linear(in_features=1280, out_features=320, bias=True)
              (dropout): Dropout(p=0.0, inplace=False)
            )
          )
          (9): SegformerLayer(
            (layer_norm_1): LayerNorm((320,), eps=1e-05, elementwise_affine=True)
            (attention): SegformerAttention(
              (self): SegformerEfficientSelfAttention(
                (query): Linear(in_features=320, out_features=320, bias=True)
                (key): Linear(in_features=320, out_features=320, bias=True)
                (value): Linear(in_features=320, out_features=320, bias=True)
                (dropout): Dropout(p=0.0, inplace=False)
                (sr): Conv2d(320, 320, kernel_size=(2, 2), stride=(2, 2))
                (layer_norm): LayerNorm((320,), eps=1e-05, elementwise_affine=True)
              )
              (output): SegformerSelfOutput(
                (dense): Linear(in_features=320, out_features=320, bias=True)
                (dropout): Dropout(p=0.0, inplace=False)
              )
            )
            (drop_path): SegformerDropPath(p=0.05925925821065903)
            (layer_norm_2): LayerNorm((320,), eps=1e-05, elementwise_affine=True)
            (mlp): SegformerMixFFN(
              (dense1): Linear(in_features=320, out_features=1280, bias=True)
              (dwconv): SegformerDWConv(
                (dwconv): Conv2d(1280, 1280, kernel_size=(3, 3), stride=(1, 1), padding=(1, 1), groups=1280)
              )
              (intermediate_act_fn): GELUActivation()
              (dense2): Linear(in_features=1280, out_features=320, bias=True)
              (dropout): Dropout(p=0.0, inplace=False)
            )
          )
          (10): SegformerLayer(
            (layer_norm_1): LayerNorm((320,), eps=1e-05, elementwise_affine=True)
            (attention): SegformerAttention(
              (self): SegformerEfficientSelfAttention(
                (query): Linear(in_features=320, out_features=320, bias=True)
                (key): Linear(in_features=320, out_features=320, bias=True)
                (value): Linear(in_features=320, out_features=320, bias=True)
                (dropout): Dropout(p=0.0, inplace=False)
                (sr): Conv2d(320, 320, kernel_size=(2, 2), stride=(2, 2))
                (layer_norm): LayerNorm((320,), eps=1e-05, elementwise_affine=True)
              )
              (output): SegformerSelfOutput(
                (dense): Linear(in_features=320, out_features=320, bias=True)
                (dropout): Dropout(p=0.0, inplace=False)
              )
            )
            (drop_path): SegformerDropPath(p=0.06296296417713165)
            (layer_norm_2): LayerNorm((320,), eps=1e-05, elementwise_affine=True)
            (mlp): SegformerMixFFN(
              (dense1): Linear(in_features=320, out_features=1280, bias=True)
              (dwconv): SegformerDWConv(
                (dwconv): Conv2d(1280, 1280, kernel_size=(3, 3), stride=(1, 1), padding=(1, 1), groups=1280)
              )
              (intermediate_act_fn): GELUActivation()
              (dense2): Linear(in_features=1280, out_features=320, bias=True)
              (dropout): Dropout(p=0.0, inplace=False)
            )
          )
          (11): SegformerLayer(
            (layer_norm_1): LayerNorm((320,), eps=1e-05, elementwise_affine=True)
            (attention): SegformerAttention(
              (self): SegformerEfficientSelfAttention(
                (query): Linear(in_features=320, out_features=320, bias=True)
                (key): Linear(in_features=320, out_features=320, bias=True)
                (value): Linear(in_features=320, out_features=320, bias=True)
                (dropout): Dropout(p=0.0, inplace=False)
                (sr): Conv2d(320, 320, kernel_size=(2, 2), stride=(2, 2))
                (layer_norm): LayerNorm((320,), eps=1e-05, elementwise_affine=True)
              )
              (output): SegformerSelfOutput(
                (dense): Linear(in_features=320, out_features=320, bias=True)
                (dropout): Dropout(p=0.0, inplace=False)
              )
            )
            (drop_path): SegformerDropPath(p=0.06666667014360428)
            (layer_norm_2): LayerNorm((320,), eps=1e-05, elementwise_affine=True)
            (mlp): SegformerMixFFN(
              (dense1): Linear(in_features=320, out_features=1280, bias=True)
              (dwconv): SegformerDWConv(
                (dwconv): Conv2d(1280, 1280, kernel_size=(3, 3), stride=(1, 1), padding=(1, 1), groups=1280)
              )
              (intermediate_act_fn): GELUActivation()
              (dense2): Linear(in_features=1280, out_features=320, bias=True)
              (dropout): Dropout(p=0.0, inplace=False)
            )
          )
          (12): SegformerLayer(
            (layer_norm_1): LayerNorm((320,), eps=1e-05, elementwise_affine=True)
            (attention): SegformerAttention(
              (self): SegformerEfficientSelfAttention(
                (query): Linear(in_features=320, out_features=320, bias=True)
                (key): Linear(in_features=320, out_features=320, bias=True)
                (value): Linear(in_features=320, out_features=320, bias=True)
                (dropout): Dropout(p=0.0, inplace=False)
                (sr): Conv2d(320, 320, kernel_size=(2, 2), stride=(2, 2))
                (layer_norm): LayerNorm((320,), eps=1e-05, elementwise_affine=True)
              )
              (output): SegformerSelfOutput(
                (dense): Linear(in_features=320, out_features=320, bias=True)
                (dropout): Dropout(p=0.0, inplace=False)
              )
            )
            (drop_path): SegformerDropPath(p=0.07037036865949631)
            (layer_norm_2): LayerNorm((320,), eps=1e-05, elementwise_affine=True)
            (mlp): SegformerMixFFN(
              (dense1): Linear(in_features=320, out_features=1280, bias=True)
              (dwconv): SegformerDWConv(
                (dwconv): Conv2d(1280, 1280, kernel_size=(3, 3), stride=(1, 1), padding=(1, 1), groups=1280)
              )
              (intermediate_act_fn): GELUActivation()
              (dense2): Linear(in_features=1280, out_features=320, bias=True)
              (dropout): Dropout(p=0.0, inplace=False)
            )
          )
          (13): SegformerLayer(
            (layer_norm_1): LayerNorm((320,), eps=1e-05, elementwise_affine=True)
            (attention): SegformerAttention(
              (self): SegformerEfficientSelfAttention(
                (query): Linear(in_features=320, out_features=320, bias=True)
                (key): Linear(in_features=320, out_features=320, bias=True)
                (value): Linear(in_features=320, out_features=320, bias=True)
                (dropout): Dropout(p=0.0, inplace=False)
                (sr): Conv2d(320, 320, kernel_size=(2, 2), stride=(2, 2))
                (layer_norm): LayerNorm((320,), eps=1e-05, elementwise_affine=True)
              )
              (output): SegformerSelfOutput(
                (dense): Linear(in_features=320, out_features=320, bias=True)
                (dropout): Dropout(p=0.0, inplace=False)
              )
            )
            (drop_path): SegformerDropPath(p=0.07407407462596893)
            (layer_norm_2): LayerNorm((320,), eps=1e-05, elementwise_affine=True)
            (mlp): SegformerMixFFN(
              (dense1): Linear(in_features=320, out_features=1280, bias=True)
              (dwconv): SegformerDWConv(
                (dwconv): Conv2d(1280, 1280, kernel_size=(3, 3), stride=(1, 1), padding=(1, 1), groups=1280)
              )
              (intermediate_act_fn): GELUActivation()
              (dense2): Linear(in_features=1280, out_features=320, bias=True)
              (dropout): Dropout(p=0.0, inplace=False)
            )
          )
          (14): SegformerLayer(
            (layer_norm_1): LayerNorm((320,), eps=1e-05, elementwise_affine=True)
            (attention): SegformerAttention(
              (self): SegformerEfficientSelfAttention(
                (query): Linear(in_features=320, out_features=320, bias=True)
                (key): Linear(in_features=320, out_features=320, bias=True)
                (value): Linear(in_features=320, out_features=320, bias=True)
                (dropout): Dropout(p=0.0, inplace=False)
                (sr): Conv2d(320, 320, kernel_size=(2, 2), stride=(2, 2))
                (layer_norm): LayerNorm((320,), eps=1e-05, elementwise_affine=True)
              )
              (output): SegformerSelfOutput(
                (dense): Linear(in_features=320, out_features=320, bias=True)
                (dropout): Dropout(p=0.0, inplace=False)
              )
            )
            (drop_path): SegformerDropPath(p=0.07777778059244156)
            (layer_norm_2): LayerNorm((320,), eps=1e-05, elementwise_affine=True)
            (mlp): SegformerMixFFN(
              (dense1): Linear(in_features=320, out_features=1280, bias=True)
              (dwconv): SegformerDWConv(
                (dwconv): Conv2d(1280, 1280, kernel_size=(3, 3), stride=(1, 1), padding=(1, 1), groups=1280)
              )
              (intermediate_act_fn): GELUActivation()
              (dense2): Linear(in_features=1280, out_features=320, bias=True)
              (dropout): Dropout(p=0.0, inplace=False)
            )
          )
          (15): SegformerLayer(
            (layer_norm_1): LayerNorm((320,), eps=1e-05, elementwise_affine=True)
            (attention): SegformerAttention(
              (self): SegformerEfficientSelfAttention(
                (query): Linear(in_features=320, out_features=320, bias=True)
                (key): Linear(in_features=320, out_features=320, bias=True)
                (value): Linear(in_features=320, out_features=320, bias=True)
                (dropout): Dropout(p=0.0, inplace=False)
                (sr): Conv2d(320, 320, kernel_size=(2, 2), stride=(2, 2))
                (layer_norm): LayerNorm((320,), eps=1e-05, elementwise_affine=True)
              )
              (output): SegformerSelfOutput(
                (dense): Linear(in_features=320, out_features=320, bias=True)
                (dropout): Dropout(p=0.0, inplace=False)
              )
            )
            (drop_path): SegformerDropPath(p=0.08148147910833359)
            (layer_norm_2): LayerNorm((320,), eps=1e-05, elementwise_affine=True)
            (mlp): SegformerMixFFN(
              (dense1): Linear(in_features=320, out_features=1280, bias=True)
              (dwconv): SegformerDWConv(
                (dwconv): Conv2d(1280, 1280, kernel_size=(3, 3), stride=(1, 1), padding=(1, 1), groups=1280)
              )
              (intermediate_act_fn): GELUActivation()
              (dense2): Linear(in_features=1280, out_features=320, bias=True)
              (dropout): Dropout(p=0.0, inplace=False)
            )
          )
          (16): SegformerLayer(
            (layer_norm_1): LayerNorm((320,), eps=1e-05, elementwise_affine=True)
            (attention): SegformerAttention(
              (self): SegformerEfficientSelfAttention(
                (query): Linear(in_features=320, out_features=320, bias=True)
                (key): Linear(in_features=320, out_features=320, bias=True)
                (value): Linear(in_features=320, out_features=320, bias=True)
                (dropout): Dropout(p=0.0, inplace=False)
                (sr): Conv2d(320, 320, kernel_size=(2, 2), stride=(2, 2))
                (layer_norm): LayerNorm((320,), eps=1e-05, elementwise_affine=True)
              )
              (output): SegformerSelfOutput(
                (dense): Linear(in_features=320, out_features=320, bias=True)
                (dropout): Dropout(p=0.0, inplace=False)
              )
            )
            (drop_path): SegformerDropPath(p=0.08518518507480621)
            (layer_norm_2): LayerNorm((320,), eps=1e-05, elementwise_affine=True)
            (mlp): SegformerMixFFN(
              (dense1): Linear(in_features=320, out_features=1280, bias=True)
              (dwconv): SegformerDWConv(
                (dwconv): Conv2d(1280, 1280, kernel_size=(3, 3), stride=(1, 1), padding=(1, 1), groups=1280)
              )
              (intermediate_act_fn): GELUActivation()
              (dense2): Linear(in_features=1280, out_features=320, bias=True)
              (dropout): Dropout(p=0.0, inplace=False)
            )
          )
          (17): SegformerLayer(
            (layer_norm_1): LayerNorm((320,), eps=1e-05, elementwise_affine=True)
            (attention): SegformerAttention(
              (self): SegformerEfficientSelfAttention(
                (query): Linear(in_features=320, out_features=320, bias=True)
                (key): Linear(in_features=320, out_features=320, bias=True)
                (value): Linear(in_features=320, out_features=320, bias=True)
                (dropout): Dropout(p=0.0, inplace=False)
                (sr): Conv2d(320, 320, kernel_size=(2, 2), stride=(2, 2))
                (layer_norm): LayerNorm((320,), eps=1e-05, elementwise_affine=True)
              )
              (output): SegformerSelfOutput(
                (dense): Linear(in_features=320, out_features=320, bias=True)
                (dropout): Dropout(p=0.0, inplace=False)
              )
            )
            (drop_path): SegformerDropPath(p=0.08888889104127884)
            (layer_norm_2): LayerNorm((320,), eps=1e-05, elementwise_affine=True)
            (mlp): SegformerMixFFN(
              (dense1): Linear(in_features=320, out_features=1280, bias=True)
              (dwconv): SegformerDWConv(
                (dwconv): Conv2d(1280, 1280, kernel_size=(3, 3), stride=(1, 1), padding=(1, 1), groups=1280)
              )
              (intermediate_act_fn): GELUActivation()
              (dense2): Linear(in_features=1280, out_features=320, bias=True)
              (dropout): Dropout(p=0.0, inplace=False)
            )
          )
        )
        (3): ModuleList(
          (0): SegformerLayer(
            (layer_norm_1): LayerNorm((512,), eps=1e-05, elementwise_affine=True)
            (attention): SegformerAttention(
              (self): SegformerEfficientSelfAttention(
                (query): Linear(in_features=512, out_features=512, bias=True)
                (key): Linear(in_features=512, out_features=512, bias=True)
                (value): Linear(in_features=512, out_features=512, bias=True)
                (dropout): Dropout(p=0.0, inplace=False)
              )
              (output): SegformerSelfOutput(
                (dense): Linear(in_features=512, out_features=512, bias=True)
                (dropout): Dropout(p=0.0, inplace=False)
              )
            )
            (drop_path): SegformerDropPath(p=0.09259259700775146)
            (layer_norm_2): LayerNorm((512,), eps=1e-05, elementwise_affine=True)
            (mlp): SegformerMixFFN(
              (dense1): Linear(in_features=512, out_features=2048, bias=True)
              (dwconv): SegformerDWConv(
                (dwconv): Conv2d(2048, 2048, kernel_size=(3, 3), stride=(1, 1), padding=(1, 1), groups=2048)
              )
              (intermediate_act_fn): GELUActivation()
              (dense2): Linear(in_features=2048, out_features=512, bias=True)
              (dropout): Dropout(p=0.0, inplace=False)
            )
          )
          (1): SegformerLayer(
            (layer_norm_1): LayerNorm((512,), eps=1e-05, elementwise_affine=True)
            (attention): SegformerAttention(
              (self): SegformerEfficientSelfAttention(
                (query): Linear(in_features=512, out_features=512, bias=True)
                (key): Linear(in_features=512, out_features=512, bias=True)
                (value): Linear(in_features=512, out_features=512, bias=True)
                (dropout): Dropout(p=0.0, inplace=False)
              )
              (output): SegformerSelfOutput(
                (dense): Linear(in_features=512, out_features=512, bias=True)
                (dropout): Dropout(p=0.0, inplace=False)
              )
            )
            (drop_path): SegformerDropPath(p=0.0962962955236435)
            (layer_norm_2): LayerNorm((512,), eps=1e-05, elementwise_affine=True)
            (mlp): SegformerMixFFN(
              (dense1): Linear(in_features=512, out_features=2048, bias=True)
              (dwconv): SegformerDWConv(
                (dwconv): Conv2d(2048, 2048, kernel_size=(3, 3), stride=(1, 1), padding=(1, 1), groups=2048)
              )
              (intermediate_act_fn): GELUActivation()
              (dense2): Linear(in_features=2048, out_features=512, bias=True)
              (dropout): Dropout(p=0.0, inplace=False)
            )
          )
          (2): SegformerLayer(
            (layer_norm_1): LayerNorm((512,), eps=1e-05, elementwise_affine=True)
            (attention): SegformerAttention(
              (self): SegformerEfficientSelfAttention(
                (query): Linear(in_features=512, out_features=512, bias=True)
                (key): Linear(in_features=512, out_features=512, bias=True)
                (value): Linear(in_features=512, out_features=512, bias=True)
                (dropout): Dropout(p=0.0, inplace=False)
              )
              (output): SegformerSelfOutput(
                (dense): Linear(in_features=512, out_features=512, bias=True)
                (dropout): Dropout(p=0.0, inplace=False)
              )
            )
            (drop_path): SegformerDropPath(p=0.10000000149011612)
            (layer_norm_2): LayerNorm((512,), eps=1e-05, elementwise_affine=True)
            (mlp): SegformerMixFFN(
              (dense1): Linear(in_features=512, out_features=2048, bias=True)
              (dwconv): SegformerDWConv(
                (dwconv): Conv2d(2048, 2048, kernel_size=(3, 3), stride=(1, 1), padding=(1, 1), groups=2048)
              )
              (intermediate_act_fn): GELUActivation()
              (dense2): Linear(in_features=2048, out_features=512, bias=True)
              (dropout): Dropout(p=0.0, inplace=False)
            )
          )
        )
      )
      (layer_norm): ModuleList(
        (0): LayerNorm((64,), eps=1e-05, elementwise_affine=True)
        (1): LayerNorm((128,), eps=1e-05, elementwise_affine=True)
        (2): LayerNorm((320,), eps=1e-05, elementwise_affine=True)
        (3): LayerNorm((512,), eps=1e-05, elementwise_affine=True)
      )
    )
    (stages): ModuleList(
      (0): Sequential(
        (0): Sequential(
          (0): MambaLayer(
            (norm1): LayerNorm((64,), eps=1e-05, elementwise_affine=True)
            (mamba): Mamba(
              (in_proj): Linear(in_features=64, out_features=256, bias=False)
              (conv1d): Conv1d(128, 128, kernel_size=(4,), stride=(1,), padding=(3,), groups=128)
              (act): SiLU()
              (x_proj): Linear(in_features=128, out_features=36, bias=False)
              (dt_proj): Linear(in_features=4, out_features=128, bias=True)
              (conv1d_b): Conv1d(128, 128, kernel_size=(4,), stride=(1,), padding=(3,), groups=128)
              (x_proj_b): Linear(in_features=128, out_features=36, bias=False)
              (dt_proj_b): Linear(in_features=4, out_features=128, bias=True)
              (conv1d_s): Conv1d(128, 128, kernel_size=(4,), stride=(1,), padding=(3,), groups=128)
              (x_proj_s): Linear(in_features=128, out_features=36, bias=False)
              (dt_proj_s): Linear(in_features=4, out_features=128, bias=True)
              (out_proj): Linear(in_features=128, out_features=64, bias=False)
            )
            (drop_path): Identity()
            (norm2): LayerNorm((64,), eps=1e-05, elementwise_affine=True)
            (mlp): Mlp(
              (fc1): Linear(in_features=64, out_features=256, bias=True)
              (dwconv): DWConv(
                (dwconv): Conv3d(256, 256, kernel_size=(3, 3, 3), stride=(1, 1, 1), padding=(1, 1, 1), groups=256)
              )
              (act): GELU(approximate='none')
              (fc2): Linear(in_features=256, out_features=64, bias=True)
              (drop): Dropout(p=0.0, inplace=False)
            )
          )
        )
        (1): Sequential(
          (0): MambaLayer(
            (norm1): LayerNorm((64,), eps=1e-05, elementwise_affine=True)
            (mamba): Mamba(
              (in_proj): Linear(in_features=64, out_features=256, bias=False)
              (conv1d): Conv1d(128, 128, kernel_size=(4,), stride=(1,), padding=(3,), groups=128)
              (act): SiLU()
              (x_proj): Linear(in_features=128, out_features=36, bias=False)
              (dt_proj): Linear(in_features=4, out_features=128, bias=True)
              (conv1d_b): Conv1d(128, 128, kernel_size=(4,), stride=(1,), padding=(3,), groups=128)
              (x_proj_b): Linear(in_features=128, out_features=36, bias=False)
              (dt_proj_b): Linear(in_features=4, out_features=128, bias=True)
              (conv1d_s): Conv1d(128, 128, kernel_size=(4,), stride=(1,), padding=(3,), groups=128)
              (x_proj_s): Linear(in_features=128, out_features=36, bias=False)
              (dt_proj_s): Linear(in_features=4, out_features=128, bias=True)
              (out_proj): Linear(in_features=128, out_features=64, bias=False)
            )
            (drop_path): Identity()
            (norm2): LayerNorm((64,), eps=1e-05, elementwise_affine=True)
            (mlp): Mlp(
              (fc1): Linear(in_features=64, out_features=256, bias=True)
              (dwconv): DWConv(
                (dwconv): Conv3d(256, 256, kernel_size=(3, 3, 3), stride=(1, 1, 1), padding=(1, 1, 1), groups=256)
              )
              (act): GELU(approximate='none')
              (fc2): Linear(in_features=256, out_features=64, bias=True)
              (drop): Dropout(p=0.0, inplace=False)
            )
          )
        )
      )
      (1): Sequential(
        (0): Sequential(
          (0): MambaLayer(
            (norm1): LayerNorm((128,), eps=1e-05, elementwise_affine=True)
            (mamba): Mamba(
              (in_proj): Linear(in_features=128, out_features=512, bias=False)
              (conv1d): Conv1d(256, 256, kernel_size=(4,), stride=(1,), padding=(3,), groups=256)
              (act): SiLU()
              (x_proj): Linear(in_features=256, out_features=40, bias=False)
              (dt_proj): Linear(in_features=8, out_features=256, bias=True)
              (conv1d_b): Conv1d(256, 256, kernel_size=(4,), stride=(1,), padding=(3,), groups=256)
              (x_proj_b): Linear(in_features=256, out_features=40, bias=False)
              (dt_proj_b): Linear(in_features=8, out_features=256, bias=True)
              (conv1d_s): Conv1d(256, 256, kernel_size=(4,), stride=(1,), padding=(3,), groups=256)
              (x_proj_s): Linear(in_features=256, out_features=40, bias=False)
              (dt_proj_s): Linear(in_features=8, out_features=256, bias=True)
              (out_proj): Linear(in_features=256, out_features=128, bias=False)
            )
            (drop_path): Identity()
            (norm2): LayerNorm((128,), eps=1e-05, elementwise_affine=True)
            (mlp): Mlp(
              (fc1): Linear(in_features=128, out_features=512, bias=True)
              (dwconv): DWConv(
                (dwconv): Conv3d(512, 512, kernel_size=(3, 3, 3), stride=(1, 1, 1), padding=(1, 1, 1), groups=512)
              )
              (act): GELU(approximate='none')
              (fc2): Linear(in_features=512, out_features=128, bias=True)
              (drop): Dropout(p=0.0, inplace=False)
            )
          )
        )
        (1): Sequential(
          (0): MambaLayer(
            (norm1): LayerNorm((128,), eps=1e-05, elementwise_affine=True)
            (mamba): Mamba(
              (in_proj): Linear(in_features=128, out_features=512, bias=False)
              (conv1d): Conv1d(256, 256, kernel_size=(4,), stride=(1,), padding=(3,), groups=256)
              (act): SiLU()
              (x_proj): Linear(in_features=256, out_features=40, bias=False)
              (dt_proj): Linear(in_features=8, out_features=256, bias=True)
              (conv1d_b): Conv1d(256, 256, kernel_size=(4,), stride=(1,), padding=(3,), groups=256)
              (x_proj_b): Linear(in_features=256, out_features=40, bias=False)
              (dt_proj_b): Linear(in_features=8, out_features=256, bias=True)
              (conv1d_s): Conv1d(256, 256, kernel_size=(4,), stride=(1,), padding=(3,), groups=256)
              (x_proj_s): Linear(in_features=256, out_features=40, bias=False)
              (dt_proj_s): Linear(in_features=8, out_features=256, bias=True)
              (out_proj): Linear(in_features=256, out_features=128, bias=False)
            )
            (drop_path): Identity()
            (norm2): LayerNorm((128,), eps=1e-05, elementwise_affine=True)
            (mlp): Mlp(
              (fc1): Linear(in_features=128, out_features=512, bias=True)
              (dwconv): DWConv(
                (dwconv): Conv3d(512, 512, kernel_size=(3, 3, 3), stride=(1, 1, 1), padding=(1, 1, 1), groups=512)
              )
              (act): GELU(approximate='none')
              (fc2): Linear(in_features=512, out_features=128, bias=True)
              (drop): Dropout(p=0.0, inplace=False)
            )
          )
        )
      )
      (2): Sequential(
        (0): Sequential(
          (0): MambaLayer(
            (norm1): LayerNorm((320,), eps=1e-05, elementwise_affine=True)
            (mamba): Mamba(
              (in_proj): Linear(in_features=320, out_features=1280, bias=False)
              (conv1d): Conv1d(640, 640, kernel_size=(4,), stride=(1,), padding=(3,), groups=640)
              (act): SiLU()
              (x_proj): Linear(in_features=640, out_features=52, bias=False)
              (dt_proj): Linear(in_features=20, out_features=640, bias=True)
              (conv1d_b): Conv1d(640, 640, kernel_size=(4,), stride=(1,), padding=(3,), groups=640)
              (x_proj_b): Linear(in_features=640, out_features=52, bias=False)
              (dt_proj_b): Linear(in_features=20, out_features=640, bias=True)
              (conv1d_s): Conv1d(640, 640, kernel_size=(4,), stride=(1,), padding=(3,), groups=640)
              (x_proj_s): Linear(in_features=640, out_features=52, bias=False)
              (dt_proj_s): Linear(in_features=20, out_features=640, bias=True)
              (out_proj): Linear(in_features=640, out_features=320, bias=False)
            )
            (drop_path): Identity()
            (norm2): LayerNorm((320,), eps=1e-05, elementwise_affine=True)
            (mlp): Mlp(
              (fc1): Linear(in_features=320, out_features=1280, bias=True)
              (dwconv): DWConv(
                (dwconv): Conv3d(1280, 1280, kernel_size=(3, 3, 3), stride=(1, 1, 1), padding=(1, 1, 1), groups=1280)
              )
              (act): GELU(approximate='none')
              (fc2): Linear(in_features=1280, out_features=320, bias=True)
              (drop): Dropout(p=0.0, inplace=False)
            )
          )
        )
        (1): Sequential(
          (0): MambaLayer(
            (norm1): LayerNorm((320,), eps=1e-05, elementwise_affine=True)
            (mamba): Mamba(
              (in_proj): Linear(in_features=320, out_features=1280, bias=False)
              (conv1d): Conv1d(640, 640, kernel_size=(4,), stride=(1,), padding=(3,), groups=640)
              (act): SiLU()
              (x_proj): Linear(in_features=640, out_features=52, bias=False)
              (dt_proj): Linear(in_features=20, out_features=640, bias=True)
              (conv1d_b): Conv1d(640, 640, kernel_size=(4,), stride=(1,), padding=(3,), groups=640)
              (x_proj_b): Linear(in_features=640, out_features=52, bias=False)
              (dt_proj_b): Linear(in_features=20, out_features=640, bias=True)
              (conv1d_s): Conv1d(640, 640, kernel_size=(4,), stride=(1,), padding=(3,), groups=640)
              (x_proj_s): Linear(in_features=640, out_features=52, bias=False)
              (dt_proj_s): Linear(in_features=20, out_features=640, bias=True)
              (out_proj): Linear(in_features=640, out_features=320, bias=False)
            )
            (drop_path): Identity()
            (norm2): LayerNorm((320,), eps=1e-05, elementwise_affine=True)
            (mlp): Mlp(
              (fc1): Linear(in_features=320, out_features=1280, bias=True)
              (dwconv): DWConv(
                (dwconv): Conv3d(1280, 1280, kernel_size=(3, 3, 3), stride=(1, 1, 1), padding=(1, 1, 1), groups=1280)
              )
              (act): GELU(approximate='none')
              (fc2): Linear(in_features=1280, out_features=320, bias=True)
              (drop): Dropout(p=0.0, inplace=False)
            )
          )
        )
      )
      (3): Sequential(
        (0): Sequential(
          (0): MambaLayer(
            (norm1): LayerNorm((512,), eps=1e-05, elementwise_affine=True)
            (mamba): Mamba(
              (in_proj): Linear(in_features=512, out_features=2048, bias=False)
              (conv1d): Conv1d(1024, 1024, kernel_size=(4,), stride=(1,), padding=(3,), groups=1024)
              (act): SiLU()
              (x_proj): Linear(in_features=1024, out_features=64, bias=False)
              (dt_proj): Linear(in_features=32, out_features=1024, bias=True)
              (conv1d_b): Conv1d(1024, 1024, kernel_size=(4,), stride=(1,), padding=(3,), groups=1024)
              (x_proj_b): Linear(in_features=1024, out_features=64, bias=False)
              (dt_proj_b): Linear(in_features=32, out_features=1024, bias=True)
              (conv1d_s): Conv1d(1024, 1024, kernel_size=(4,), stride=(1,), padding=(3,), groups=1024)
              (x_proj_s): Linear(in_features=1024, out_features=64, bias=False)
              (dt_proj_s): Linear(in_features=32, out_features=1024, bias=True)
              (out_proj): Linear(in_features=1024, out_features=512, bias=False)
            )
            (drop_path): Identity()
            (norm2): LayerNorm((512,), eps=1e-05, elementwise_affine=True)
            (mlp): Mlp(
              (fc1): Linear(in_features=512, out_features=2048, bias=True)
              (dwconv): DWConv(
                (dwconv): Conv3d(2048, 2048, kernel_size=(3, 3, 3), stride=(1, 1, 1), padding=(1, 1, 1), groups=2048)
              )
              (act): GELU(approximate='none')
              (fc2): Linear(in_features=2048, out_features=512, bias=True)
              (drop): Dropout(p=0.0, inplace=False)
            )
          )
        )
        (1): Sequential(
          (0): MambaLayer(
            (norm1): LayerNorm((512,), eps=1e-05, elementwise_affine=True)
            (mamba): Mamba(
              (in_proj): Linear(in_features=512, out_features=2048, bias=False)
              (conv1d): Conv1d(1024, 1024, kernel_size=(4,), stride=(1,), padding=(3,), groups=1024)
              (act): SiLU()
              (x_proj): Linear(in_features=1024, out_features=64, bias=False)
              (dt_proj): Linear(in_features=32, out_features=1024, bias=True)
              (conv1d_b): Conv1d(1024, 1024, kernel_size=(4,), stride=(1,), padding=(3,), groups=1024)
              (x_proj_b): Linear(in_features=1024, out_features=64, bias=False)
              (dt_proj_b): Linear(in_features=32, out_features=1024, bias=True)
              (conv1d_s): Conv1d(1024, 1024, kernel_size=(4,), stride=(1,), padding=(3,), groups=1024)
              (x_proj_s): Linear(in_features=1024, out_features=64, bias=False)
              (dt_proj_s): Linear(in_features=32, out_features=1024, bias=True)
              (out_proj): Linear(in_features=1024, out_features=512, bias=False)
            )
            (drop_path): Identity()
            (norm2): LayerNorm((512,), eps=1e-05, elementwise_affine=True)
            (mlp): Mlp(
              (fc1): Linear(in_features=512, out_features=2048, bias=True)
              (dwconv): DWConv(
                (dwconv): Conv3d(2048, 2048, kernel_size=(3, 3, 3), stride=(1, 1, 1), padding=(1, 1, 1), groups=2048)
              )
              (act): GELU(approximate='none')
              (fc2): Linear(in_features=2048, out_features=512, bias=True)
              (drop): Dropout(p=0.0, inplace=False)
            )
          )
        )
      )
    )
  )
  (decoder): SegformerDecodeHead(
    (linear_c): ModuleList(
      (0): SegformerMLP(
        (proj): Linear(in_features=64, out_features=768, bias=True)
      )
      (1): SegformerMLP(
        (proj): Linear(in_features=128, out_features=768, bias=True)
      )
      (2): SegformerMLP(
        (proj): Linear(in_features=320, out_features=768, bias=True)
      )
      (3): SegformerMLP(
        (proj): Linear(in_features=512, out_features=768, bias=True)
      )
    )
    (linear_fuse): Conv2d(3072, 768, kernel_size=(1, 1), stride=(1, 1), bias=False)
    (batch_norm): BatchNorm2d(768, eps=1e-05, momentum=0.1, affine=True, track_running_stats=True)
    (activation): ReLU()
    (dropout): Dropout(p=0.1, inplace=False)
    (classifier): Conv2d(768, 150, kernel_size=(1, 1), stride=(1, 1))
  )
  (out): Conv2d(768, 1, kernel_size=(1, 1), stride=(1, 1))
)
[07:29:58.193512] base lr: 1.00e-03
[07:29:58.193579] actual lr: 1.25e-04
[07:29:58.193632] accumulate grad iterations: 1
[07:29:58.193683] effective batch size: 32
[07:29:58.195365] AdamW (
Parameter Group 0
    amsgrad: False
    betas: (0.9, 0.999)
    capturable: False
    differentiable: False
    eps: 1e-08
    foreach: None
    fused: None
    lr: 0.000125
…
